device : /gpu:0
Model: "sequential"
_________________________________________________________________
Layer (type)                 Output Shape              Param #   
=================================================================
dense (Dense)                (None, 512)               401920    
_________________________________________________________________
dense_1 (Dense)              (None, 256)               131328    
_________________________________________________________________
dense_2 (Dense)              (None, 256)               65792     
_________________________________________________________________
batch_normalization (BatchNo (None, 256)               1024      
_________________________________________________________________
dense_3 (Dense)              (None, 64)                16448     
_________________________________________________________________
dense_4 (Dense)              (None, 64)                4160      
_________________________________________________________________
dense_5 (Dense)              (None, 64)                4160      
_________________________________________________________________
dropout (Dropout)            (None, 64)                0         
_________________________________________________________________
dense_6 (Dense)              (None, 10)                650       
=================================================================
Total params: 625,482
Trainable params: 624,970
Non-trainable params: 512
_________________________________________________________________
Epoch : 1, train loss : 0.573, train accuracy : 0.793, val loss : 0.414, val accuracy : 0.852
Epoch : 2, train loss : 0.392, train accuracy : 0.857, val loss : 0.377, val accuracy : 0.86
…
